Model: "sequential"
_________________________________________________________________
Layer (type)                 Output Shape              Param #   
=================================================================
conv2d (Conv2D)              (None, 62, 62, 32)        896       
_________________________________________________________________
max_pooling2d (MaxPooling2D) (None, 31, 31, 32)        0         
_________________________________________________________________
conv2d_1 (Conv2D)            (None, 29, 29, 32)        9248      
_________________________________________________________________
max_pooling2d_1 (MaxPooling2 (None, 14, 14, 32)        0         
_________________________________________________________________
conv2d_2 (Conv2D)            (None, 12, 12, 64)        18496     
_________________________________________________________________
max_pooling2d_2 (MaxPooling2 (None, 6, 6, 64)          0         
_________________________________________________________________
flatten (Flatten)            (None, 2304)              0         
_________________________________________________________________
dense (Dense)                (None, 256)               590080    
_________________________________________________________________
dropout (Dropout)            (None, 256)               0         
_________________________________________________________________
dense_1 (Dense)              (None, 41)                10537     
=================================================================
Total params: 629,257
Trainable params: 629,257
Non-trainable params: 0
_________________________________________________________________
Found 71750 images belonging to 41 classes.
Found 10250 images belonging to 41 classes.
Epoch 1/27
800/800 [==============================] - 133s 166ms/step - loss: 2.7205 - accuracy: 0.2701 - val_loss: 0.7037 - val_accuracy: 0.7976
…
